…
N_CATEGORY ==
2
else
N_CATEGORY
final_act
=
""sigmoid""
if
N_CATEGORY ==
2
else
""
softmax
""
model_output
=
layers.Dense
(
final_dim
, activation=
final_act
)(z)
model =
keras.Model
(
model_input
,
model_output
)
model.summary
()
https://colab.research.google.com/drive/1eNWhgg1NMNLJe4d0B7CzKJ8JS9C7WlV4?usp=sharing
_________________________________________________________________
Layer (type) Output Shape Param #
=================================================================
input (
InputLayer
) [(None, 227, 227, 3)] 0
_________________________________________________________________
conv2d_15 (Conv2D) (None, 55, 55, 96) 34944
_________________________________________________________________
max_pooling2d_9 (MaxPooling2 (None, 27, 27, 96) 0
_________________________________________________________________
batch_normalization_6 (Batch (None, 27, 27, 96) 384
_________________________________________________________________
zero_padding2d_12 (
ZeroPaddi
(None, 31, 31, 96) 0
_________________________________________________________________
conv2d_16 (Conv2D) (None, 27, 27, 256) 614656
_________________________________________________________________
max_pooling2d_10 (
MaxPooling
(None, 13, 13, 256) 0
_________________________________________________________________
batch_normalization_7 (Batch (None, 13, 13, 256) 1024
_________________________________________________________________
zero_padding2d_13 (
ZeroPaddi
(None, 15, 15, 256) 0
_________________________________________________________________
conv2d_17 (Conv2D) (None, 13, 13, 384) 885120 ______________________________________________________________
zero_padding2d_14 (
ZeroPaddi
(None, 15, 15, 384) 0
_________________________________________________________________
conv2d_18 (Conv2D) (None, 13, 13, 384) 1327488
_________________________________________________________________
zero_padding2d_15 (
ZeroPaddi
(None, 15, 15, 384) 0
_________________________________________________________________
conv2d_19 (Conv2D) (None, 13, 13, 256) 884992
_________________________________________________________________
max_pooling2d_11 (
MaxPooling
(None, 6, 6, 256) 0
_________________________________________________________________
flatten_3 (Flatten) (None, 9216) 0
_________________________________________________________________
dense_8 (Dense) (None, 4096) 37752832
_________________________________________________________________
dropout_6 (Dropout) (None, 4096) 0
_________________________________________________________________
dense_9 (Dense) (None, 4096) 16781312
_________________________________________________________________
dropout_7 (Dropout) (None, 4096) 0
_________________________________________________________________
dense_10 (Dense) (None, 1000) 4097000
=================================================================
Total params: 62,379,752
Trainable params: 62,379,048
Non-trainable params: 704
AlexNet
10"
5,Modern CNN,5  - Modern CNN.pptx,11,Simplified AlexNet in PyTorch (Teaching Version),"Simplified
AlexNet
in
PyTorch
(Teaching Version)
class
AlexNet
(
nn.Module
):
def __
init
__(self,
num_classes
=1000):
super(
AlexNet
, self).__
init
__()
…
